…
  desc: null
  value: true
enable_mixup:
  desc: null
  value: true
eval_interval:
  desc: null
  value: 1
exp_name:
  desc: null
  value: yolox_voc_s
flip_prob:
  desc: null
  value: 0.5
hsv_prob:
  desc: null
  value: 1.0
input_size:
  desc: null
  value:
  - 640
  - 640
max_epoch:
  desc: null
  value: 200
min_lr_ratio:
  desc: null
  value: 0.05
mixup_prob:
  desc: null
  value: 1.0
mixup_scale:
  desc: null
  value:
  - 0.5
  - 1.5
model:
  desc: null
  value: "YOLOX(\n  (backbone): YOLOPAFPN(\n    (backbone): CSPDarknet(\n      (stem):\
    \ Focus(\n        (conv): BaseConv(\n          (conv): Conv2d(12, 32, kernel_size=(3,\
    \ 3), stride=(1, 1), padding=(1, 1), bias=False)\n          (bn): BatchNorm2d(32,\
    \ eps=0.001, momentum=0.03, affine=True, track_running_stats=True)\n         \
    \ (act): SiLU(inplace=True)\n        )\n      )\n      (dark2): Sequential(\n\
    \        (0): BaseConv(\n          (conv): Conv2d(32, 64, kernel_size=(3, 3),\
    \ stride=(2, 2), padding=(1, 1), bias=False)\n          (bn): BatchNorm2d(64,\
    \ eps=0.001, momentum=0.03, affine=True, track_running_stats=True)\n         \
    \ (act): SiLU(inplace=True)\n        )\n        (1): CSPLayer(\n          (conv1):\
    \ BaseConv(\n            (conv): Conv2d(64, 32, kernel_size=(1, 1), stride=(1,\
    \ 1), bias=False)\n            (bn): BatchNorm2d(32, eps=0.001, momentum=0.03,\
    \ affine=True, track_running_stats=True)\n            (act): SiLU(inplace=True)\n\
    \          )\n          (conv2): BaseConv(\n            (conv): Conv2d(64, 32,\
    \ kernel_size=(1, 1), stride=(1, 1), bias=False)\n            (bn): BatchNorm2d(32,\
    \ eps=0.001, momentum=0.03, affine=True, track_running_stats=True)\n         \
    \   (act): SiLU(inplace=True)\n          )\n          (conv3): BaseConv(\n   \
    \         (conv): Conv2d(64, 64, kernel_size=(1, 1), stride=(1, 1), bias=False)\n\
    \            (bn): BatchNorm2d(64, eps=0.001, momentum=0.03, affine=True, track_running_stats=True)\n\
    \            (act): SiLU(inplace=True)\n          )\n          (m): Sequential(\n\
    \            (0): Bottleneck(\n              (conv1): BaseConv(\n            \
    \    (conv): Conv2d(32, 32, kernel_size=(1, 1), stride=(1, 1), bias=False)\n \
    \               (bn): BatchNorm2d(32, eps=0.001, momentum=0.03, affine=True, track_running_stats=True)\n\
    \                (act): SiLU(inplace=True)\n              )\n              (conv2):\
    \ BaseConv(\n                (conv): Conv2d(32, 32, kernel_size=(3, 3), stride=(1,\
    \ 1), padding=(1, 1), bias=False)\n                (bn): BatchNorm2d(32, eps=0.001,\
    \ momentum=0.03, affine=True, track_running_stats=True)\n                (act):\
    \ SiLU(inplace=True)\n              )\n            )\n          )\n        )\n\
    \      )\n      (dark3): Sequential(\n        (0): BaseConv(\n          (conv):\
    \ Conv2d(64, 128, kernel_size=(3, 3), stride=(2, 2), padding=(1, 1), bias=False)\n\
    \          (bn): BatchNorm2d(128, eps=0.001, momentum=0.03, affine=True, track_running_stats=True)\n\
    \          (act): SiLU(inplace=True)\n        )\n        (1): CSPLayer(\n    \
    \      (conv1): BaseConv(\n            (conv): Conv2d(128, 64, kernel_size=(1,\
    \ 1), stride=(1, 1), bias=False)\n            (bn): BatchNorm2d(64, eps=0.001,\
    \ momentum=0.03, affine=True, track_running_stats=True)\n            (act): SiLU(inplace=True)\n\
    \          )\n          (conv2): BaseConv(\n            (conv): Conv2d(128, 64,\
    \ kernel_size=(1, 1), stride=(1, 1), bias=False)\n            (bn): BatchNorm2d(64,\
    \ eps=0.001, momentum=0.03, affine=True, track_running_stats=True)\n         \
    \   (act): SiLU(inplace=True)\n          )\n          (conv3): BaseConv(\n   \
    \         (conv): Conv2d(128, 128, kernel_size=(1, 1), stride=(1, 1), bias=False)\n\
    \            (bn): BatchNorm2d(128, eps=0.001, momentum=0.03, affine=True, track_running_stats=True)\n\
    \            (act): SiLU(inplace=True)\n          )\n          (m): Sequential(\n\
    \            (0): Bottleneck(\n              (conv1): BaseConv(\n            \
    \    (conv): Conv2d(64, 64, kernel_size=(1, 1), stride=(1, 1), bias=False)\n \
    \               (bn): BatchNorm2d(64, eps=0.001, momentum=0.03, affine=True, track_running_stats=True)\n\
    \                (act): SiLU(inplace=True)\n              )\n              (conv2):\
    \ BaseConv(\n                (conv): Conv2d(64, 64, kernel_size=(3, 3), stride=(1,\
    \ 1), padding=(1, 1), bias=False)\n                (bn): BatchNorm2d(64, eps=0.001,\
    \ momentum=0.03, affine=True, track_running_stats=True)\n                (act):\
    \ SiLU(inplace=True)\n              )\n            )\n            (1): Bottleneck(\n\
    \              (conv1): BaseConv(\n                (conv): Conv2d(64, 64, kernel_size=(1,\
    \ 1), stride=(1, 1), bias=False)\n                (bn): BatchNorm2d(64, eps=0.001,\
    \ momentum=0.03, affine=True, track_running_stats=True)\n                (act):\
    \ SiLU(inplace=True)\n              )\n              (conv2): BaseConv(\n    \
    \            (conv): Conv2d(64, 64, kernel_size=(3, 3), stride=(1, 1), padding=(1,\
    \ 1), bias=False)\n                (bn): BatchNorm2d(64, eps=0.001, momentum=0.03,\
    \ affine=True, track_running_stats=True)\n                (act): SiLU(inplace=True)\n\
    \              )\n            )\n            (2): Bottleneck(\n              (conv1):\
    \ BaseConv(\n                (conv): Conv2d(64, 64, kernel_size=(1, 1), stride=(1,\
    \ 1), bias=False)\n                (bn): BatchNorm2d(64, eps=0.001, momentum=0.03,\
    \ affine=True, track_running_stats=True)\n                (act): SiLU(inplace=True)\n\
    \              )\n              (conv2): BaseConv(\n                (conv): Conv2d(64,\
    \ 64, kernel_size=(3, 3), stride=(1, 1), padding=(1, 1), bias=False)\n       \
    \         (bn): BatchNorm2d(64, eps=0.001, momentum=0.03, affine=True, track_running_stats=True)\n\
    \                (act): SiLU(inplace=True)\n              )\n            )\n \
    \         )\n        )\n      )\n      (dark4): Sequential(\n        (0): BaseConv(\n\
    \          (conv): Conv2d(128, 256, kernel_size=(3, 3), stride=(2, 2), padding=(1,\
    \ 1), bias=False)\n          (bn): BatchNorm2d(256, eps=0.001, momentum=0.03,\
    \ affine=True, track_running_stats=True)\n          (act): SiLU(inplace=True)\n\
    \        )\n        (1): CSPLayer(\n          (conv1): BaseConv(\n           \
    \ (conv): Conv2d(256, 128, kernel_size=(1, 1), stride=(1, 1), bias=False)\n  \
    \          (bn): BatchNorm2d(128, eps=0.001, momentum=0.03, affine=True, track_running_stats=True)\n\
    \            (act): SiLU(inplace=True)\n          )\n          (conv2): BaseConv(\n\
    \            (conv): Conv2d(256, 128, kernel_size=(1, 1), stride=(1, 1), bias=False)\n\
    \            (bn): BatchNorm2d(128, eps=0.001, momentum=0.03, affine=True, track_running_stats=True)\n\
    \            (act): SiLU(inplace=True)\n          )\n          (conv3): BaseConv(\n\
    \            (conv): Conv2d(256, 256, kernel_size=(1, 1), stride=(1, 1), bias=False)\n\
    \            (bn): BatchNorm2d(256, eps=0.001, momentum=0.03, affine=True, track_running_stats=True)\n\
    \            (act): SiLU(inplace=True)\n          )\n          (m): Sequential(\n\
    \            (0): Bottleneck(\n              (conv1): BaseConv(\n            \
    \    (conv): Conv2d(128, 128, kernel_size=(1, 1), stride=(1, 1), bias=False)\n\
    \                (bn): BatchNorm2d(128, eps=0.001, momentum=0.03, affine=True,\
    \ track_running_stats=True)\n                (act): SiLU(inplace=True)\n     \
    \         )\n              (conv2): BaseConv(\n                (conv): Conv2d(128,\
    \ 128, kernel_size=(3, 3), stride=(1, 1), padding=(1, 1), bias=False)\n      \
    \          (bn): BatchNorm2d(128, eps=0.001, momentum=0.03, affine=True, track_running_stats=True)\n\
    \                (act): SiLU(inplace=True)\n              )\n            )\n \
    \           (1): Bottleneck(\n              (conv1): BaseConv(\n             \
    \   (conv): Conv2d(128, 128, kernel_size=(1, 1), stride=(1, 1), bias=False)\n\
    \                (bn): BatchNorm2d(128, eps=0.001, momentum=0.03, affine=True,\
    \ track_running_stats=True)\n                (act): SiLU(inplace=True)\n     \
    \         )\n              (conv2): BaseConv(\n                (conv): Conv2d(128,\
    \ 128, kernel_size=(3, 3), stride=(1, 1), padding=(1, 1), bias=False)\n      \
    \          (bn): BatchNorm2d(128, eps=0.001, momentum=0.03, affine=True, track_running_stats=True)\n\
    \                (act): SiLU(inplace=True)\n              )\n            )\n \
    \           (2): Bottleneck(\n              (conv1): BaseConv(\n             \
    \   (conv): Conv2d(128, 128, kernel_size=(1, 1), stride=(1, 1), bias=False)\n\
    \                (bn): BatchNorm2d(128, eps=0.001, momentum=0.03, affine=True,\
    \ track_running_stats=True)\n                (act): SiLU(inplace=True)\n     \
    \         )\n              (conv2): BaseConv(\n                (conv): Conv2d(128,\
    \ 128, kernel_size=(3, 3), stride=(1, 1), padding=(1, 1), bias=False)\n      \
    \          (bn): BatchNorm2d(128, eps=0.001, momentum=0.03, affine=True, track_running_stats=True)\n\
    \                (act): SiLU(inplace=True)\n              )\n            )\n \
    \         )\n        )\n      )\n      (dark5): Sequential(\n        (0): BaseConv(\n\
    \          (conv): Conv2d(256, 512, kernel_size=(3, 3), stride=(2, 2), padding=(1,\
    \ 1), bias=False)\n          (bn): BatchNorm2d(512, eps=0.001, momentum=0.03,\
    \ affine=True, track_running_stats=True)\n          (act): SiLU(inplace=True)\n\
    \        )\n        (1): SPPBottleneck(\n          (conv1): BaseConv(\n      \
    \      (conv): Conv2d(512, 256, kernel_size=(1, 1), stride=(1, 1), bias=False)\n\
    \            (bn): BatchNorm2d(256, eps=0.001, momentum=0.03, affine=True, track_running_stats=True)\n\
    \            (act): SiLU(inplace=True)\n          )\n          (m): ModuleList(\n\
    \            (0): MaxPool2d(kernel_size=5, stride=1, padding=2, dilation=1, ceil_mode=False)\n\
    \            (1): MaxPool2d(kernel_size=9, stride=1, padding=4, dilation=1, ceil_mode=False)\n\
    \            (2): MaxPool2d(kernel_size=13, stride=1, padding=6, dilation=1, ceil_mode=False)\n\
    \          )\n          (conv2): BaseConv(\n            (conv): Conv2d(1024, 512,\
    \ kernel_size=(1, 1), stride=(1, 1), bias=False)\n            (bn): BatchNorm2d(512,\
    \ eps=0.001, momentum=0.03, affine=True, track_running_stats=True)\n         \
    \   (act): SiLU(inplace=True)\n          )\n        )\n        (2): CSPLayer(\n\
    \          (conv1): BaseConv(\n            (conv): Conv2d(512, 256, kernel_size=(1,\
    \ 1), stride=(1, 1), bias=False)\n            (bn): BatchNorm2d(256, eps=0.001,\
    \ momentum=0.03, affine=True, track_running_stats=True)\n            (act): SiLU(inplace=True)\n\
    \          )\n          (conv2): BaseConv(\n            (conv): Conv2d(512, 256,\
    \ kernel_size=(1, 1), stride=(1, 1), bias=False)\n            (bn): BatchNorm2d(256,\
    \ eps=0.001, momentum=0.03, affine=True, track_running_stats=True)\n         \
    \   (act): SiLU(inplace=True)\n          )\n          (conv3): BaseConv(\n   \
    \         (conv): Conv2d(512, 512, kernel_size=(1, 1), stride=(1, 1), bias=False)\n\
    \            (bn): BatchNorm2d(512, eps=0.001, momentum=0.03, affine=True, track_running_stats=True)\n\
    \            (act): SiLU(inplace=True)\n          )\n          (m): Sequential(\n\
    \            (0): Bottleneck(\n              (conv1): BaseConv(\n            \
    \    (conv): Conv2d(256, 256, kernel_size=(1, 1), stride=(1, 1), bias=False)\n\
    \                (bn): BatchNorm2d(256, eps=0.001, momentum=0.03, affine=True,\
    \ track_running_stats=True)\n                (act): SiLU(inplace=True)\n     \
    \         )\n              (conv2): BaseConv(\n                (conv): Conv2d(256,\
    \ 256, kernel_size=(3, 3), stride=(1, 1), padding=(1, 1), bias=False)\n      \
    \          (bn): BatchNorm2d(256, eps=0.001, momentum=0.03, affine=True, track_running_stats=True)\n\
    \                (act): SiLU(inplace=True)\n              )\n            )\n \
    \         )\n        )\n      )\n    )\n    (upsample): Upsample(scale_factor=2.0,\
    \ mode=nearest)\n    (lateral_conv0): BaseConv(\n      (conv): Conv2d(512, 256,\
    \ kernel_size=(1, 1), stride=(1, 1), bias=False)\n      (bn): BatchNorm2d(256,\
    \ eps=0.001, momentum=0.03, affine=True, track_running_stats=True)\n      (act):\
    \ SiLU(inplace=True)\n    )\n    (C3_p4): CSPLayer(\n      (conv1): BaseConv(\n\
    \        (conv): Conv2d(512, 128, kernel_size=(1, 1), stride=(1, 1), bias=False)\n\
    \        (bn): BatchNorm2d(128, eps=0.001, momentum=0.03, affine=True, track_running_stats=True)\n\
    \        (act): SiLU(inplace=True)\n      )\n      (conv2): BaseConv(\n      \
    \  (conv): Conv2d(512, 128, kernel_size=(1, 1), stride=(1, 1), bias=False)\n \
    \       (bn): BatchNorm2d(128, eps=0.001, momentum=0.03, affine=True, track_running_stats=True)\n\
    \        (act): SiLU(inplace=True)\n      )\n      (conv3): BaseConv(\n      \
    \  (conv): Conv2d(256, 256, kernel_size=(1, 1), stride=(1, 1), bias=False)\n \
    \       (bn): BatchNorm2d(256, eps=0.001, momentum=0.03, affine=True, track_running_stats=True)\n\
    \        (act): SiLU(inplace=True)\n      )\n      (m): Sequential(\n        (0):\
    \ Bottleneck(\n          (conv1): BaseConv(\n            (conv): Conv2d(128, 128,\
    \ kernel_size=(1, 1), stride=(1, 1), bias=False)\n            (bn): BatchNorm2d(128,\
    \ eps=0.001, momentum=0.03, affine=True, track_running_stats=True)\n         \
    \   (act): SiLU(inplace=True)\n          )\n          (conv2): BaseConv(\n   \
    \         (conv): Conv2d(128, 128, kernel_size=(3, 3), stride=(1, 1), padding=(1,\
    \ 1), bias=False)\n            (bn): BatchNorm2d(128, eps=0.001, momentum=0.03,\
    \ affine=True, track_running_stats=True)\n            (act): SiLU(inplace=True)\n\
    \          )\n        )\n      )\n    )\n    (reduce_conv1): BaseConv(\n     \
    \ (conv): Conv2d(256, 128, kernel_size=(1, 1), stride=(1, 1), bias=False)\n  \
    \    (bn): BatchNorm2d(128, eps=0.001, momentum=0.03, affine=True, track_running_stats=True)\n\
    \      (act): SiLU(inplace=True)\n    )\n    (C3_p3): CSPLayer(\n      (conv1):\
    \ BaseConv(\n        (conv): Conv2d(256, 64, kernel_size=(1, 1), stride=(1, 1),\
    \ bias=False)\n        (bn): BatchNorm2d(64, eps=0.001, momentum=0.03, affine=True,\
    \ track_running_stats=True)\n        (act): SiLU(inplace=True)\n      )\n    \
    \  (conv2): BaseConv(\n        (conv): Conv2d(256, 64, kernel_size=(1, 1), stride=(1,\
    \ 1), bias=False)\n        (bn): BatchNorm2d(64, eps=0.001, momentum=0.03, affine=True,\
    \ track_running_stats=True)\n        (act): SiLU(inplace=True)\n      )\n    \
    \  (conv3): BaseConv(\n        (conv): Conv2d(128, 128, kernel_size=(1, 1), stride=(1,\
    \ 1), bias=False)\n        (bn): BatchNorm2d(128, eps=0.001, momentum=0.03, affine=True,\
    \ track_running_stats=True)\n        (act): SiLU(inplace=True)\n      )\n    \
    \  (m): Sequential(\n        (0): Bottleneck(\n          (conv1): BaseConv(\n\
    \            (conv): Conv2d(64, 64, kernel_size=(1, 1), stride=(1, 1), bias=False)\n\
    \            (bn): BatchNorm2d(64, eps=0.001, momentum=0.03, affine=True, track_running_stats=True)\n\
    \            (act): SiLU(inplace=True)\n          )\n          (conv2): BaseConv(\n\
    \            (conv): Conv2d(64, 64, kernel_size=(3, 3), stride=(1, 1), padding=(1,\
    \ 1), bias=False)\n            (bn): BatchNorm2d(64, eps=0.001, momentum=0.03,\
    \ affine=True, track_running_stats=True)\n            (act): SiLU(inplace=True)\n\
    \          )\n        )\n      )\n    )\n    (bu_conv2): BaseConv(\n      (conv):\
    \ Conv2d(128, 128, kernel_size=(3, 3), stride=(2, 2), padding=(1, 1), bias=False)\n\
    \      (bn): BatchNorm2d(128, eps=0.001, momentum=0.03, affine=True, track_running_stats=True)\n\
    \      (act): SiLU(inplace=True)\n    )\n    (C3_n3): CSPLayer(\n      (conv1):\
    \ BaseConv(\n        (conv): Conv2d(256, 128, kernel_size=(1, 1), stride=(1, 1),\
    \ bias=False)\n        (bn): BatchNorm2d(128, eps=0.001, momentum=0.03, affine=True,\
    \ track_running_stats=True)\n        (act): SiLU(inplace=True)\n      )\n    \
    \  (conv2): BaseConv(\n        (conv): Conv2d(256, 128, kernel_size=(1, 1), stride=(1,\
    \ 1), bias=False)\n        (bn): BatchNorm2d(128, eps=0.001, momentum=0.03, affine=True,\
    \ track_running_stats=True)\n        (act): SiLU(inplace=True)\n      )\n    \
    \  (conv3): BaseConv(\n        (conv): Conv2d(256, 256, kernel_size=(1, 1), stride=(1,\
    \ 1), bias=False)\n        (bn): BatchNorm2d(256, eps=0.001, momentum=0.03, affine=True,\
    \ track_running_stats=True)\n        (act): SiLU(inplace=True)\n      )\n    \
    \  (m): Sequential(\n        (0): Bottleneck(\n          (conv1): BaseConv(\n\
    \            (conv): Conv2d(128, 128, kernel_size=(1, 1), stride=(1, 1), bias=False)\n\
    \            (bn): BatchNorm2d(128, eps=0.001, momentum=0.03, affine=True, track_running_stats=True)\n\
    \            (act): SiLU(inplace=True)\n          )\n          (conv2): BaseConv(\n\
    \            (conv): Conv2d(128, 128, kernel_size=(3, 3), stride=(1, 1), padding=(1,\
    \ 1), bias=False)\n            (bn): BatchNorm2d(128, eps=0.001, momentum=0.03,\
    \ affine=True, track_running_stats=True)\n            (act): SiLU(inplace=True)\n\
    \          )\n        )\n      )\n    )\n    (bu_conv1): BaseConv(\n      (conv):\
    \ Conv2d(256, 256, kernel_size=(3, 3), stride=(2, 2), padding=(1, 1), bias=False)\n\
    \      (bn): BatchNorm2d(256, eps=0.001, momentum=0.03, affine=True, track_running_stats=True)\n\
    \      (act): SiLU(inplace=True)\n    )\n    (C3_n4): CSPLayer(\n      (conv1):\
    \ BaseConv(\n        (conv): Conv2d(512, 256, kernel_size=(1, 1), stride=(1, 1),\
    \ bias=False)\n        (bn): BatchNorm2d(256, eps=0.001, momentum=0.03, affine=True,\
    \ track_running_stats=True)\n        (act): SiLU(inplace=True)\n      )\n    \
    \  (conv2): BaseConv(\n        (conv): Conv2d(512, 256, kernel_size=(1, 1), stride=(1,\
    \ 1), bias=False)\n        (bn): BatchNorm2d(256, eps=0.001, momentum=0.03, affine=True,\
    \ track_running_stats=True)\n        (act): SiLU(inplace=True)\n      )\n    \
    \  (conv3): BaseConv(\n        (conv): Conv2d(512, 512, kernel_size=(1, 1), stride=(1,\
    \ 1), bias=False)\n        (bn): BatchNorm2d(512, eps=0.001, momentum=0.03, affine=True,\
    \ track_running_stats=True)\n        (act): SiLU(inplace=True)\n      )\n    \
    \  (m): Sequential(\n        (0): Bottleneck(\n          (conv1): BaseConv(\n\
    \            (conv): Conv2d(256, 256, kernel_size=(1, 1), stride=(1, 1), bias=False)\n\
    \            (bn): BatchNorm2d(256, eps=0.001, momentum=0.03, affine=True, track_running_stats=True)\n\
    \            (act): SiLU(inplace=True)\n          )\n          (conv2): BaseConv(\n\
    \            (conv): Conv2d(256, 256, kernel_size=(3, 3), stride=(1, 1), padding=(1,\
    \ 1), bias=False)\n            (bn): BatchNorm2d(256, eps=0.001, momentum=0.03,\
    \ affine=True, track_running_stats=True)\n            (act): SiLU(inplace=True)\n\
    \          )\n        )\n      )\n    )\n  )\n  (head): YOLOXHead(\n    (cls_convs):\
    \ ModuleList(\n      (0): Sequential(\n        (0): BaseConv(\n          (conv):\
    \ Conv2d(128, 128, kernel_size=(3, 3), stride=(1, 1), padding=(1, 1), bias=False)\n\
    \          (bn): BatchNorm2d(128, eps=0.001, momentum=0.03, affine=True, track_running_stats=True)\n\
    \          (act): SiLU(inplace=True)\n        )\n        (1): BaseConv(\n    \
    \      (conv): Conv2d(128, 128, kernel_size=(3, 3), stride=(1, 1), padding=(1,\
    \ 1), bias=False)\n          (bn): BatchNorm2d(128, eps=0.001, momentum=0.03,\
    \ affine=True, track_running_stats=True)\n          (act): SiLU(inplace=True)\n\
    \        )\n      )\n      (1): Sequential(\n        (0): BaseConv(\n        \
    \  (conv): Conv2d(128, 128, kernel_size=(3, 3), stride=(1, 1), padding=(1, 1),\
    \ bias=False)\n          (bn): BatchNorm2d(128, eps=0.001, momentum=0.03, affine=True,\
    \ track_running_stats=True)\n          (act): SiLU(inplace=True)\n        )\n\
    \        (1): BaseConv(\n          (conv): Conv2d(128, 128, kernel_size=(3, 3),\
    \ stride=(1, 1), padding=(1, 1), bias=False)\n          (bn): BatchNorm2d(128,\
    \ eps=0.001, momentum=0.03, affine=True, track_running_stats=True)\n         \
    \ (act): SiLU(inplace=True)\n        )\n      )\n      (2): Sequential(\n    \
    \    (0): BaseConv(\n          (conv): Conv2d(128, 128, kernel_size=(3, 3), stride=(1,\
    \ 1), padding=(1, 1), bias=False)\n          (bn): BatchNorm2d(128, eps=0.001,\
    \ momentum=0.03, affine=True, track_running_stats=True)\n          (act): SiLU(inplace=True)\n\
    \        )\n        (1): BaseConv(\n          (conv): Conv2d(128, 128, kernel_size=(3,\
    \ 3), stride=(1, 1), padding=(1, 1), bias=False)\n          (bn): BatchNorm2d(128,\
    \ eps=0.001, momentum=0.03, affine=True, track_running_stats=True)\n         \
    \ (act): SiLU(inplace=True)\n        )\n      )\n    )\n    (reg_convs): ModuleList(\n\
    \      (0): Sequential(\n        (0): BaseConv(\n          (conv): Conv2d(128,\
    \ 128, kernel_size=(3, 3), stride=(1, 1), padding=(1, 1), bias=False)\n      \
    \    (bn): BatchNorm2d(128, eps=0.001, momentum=0.03, affine=True, track_running_stats=True)\n\
    \          (act): SiLU(inplace=True)\n        )\n        (1): BaseConv(\n    \
    \      (conv): Conv2d(128, 128, kernel_size=(3, 3), stride=(1, 1), padding=(1,\
    \ 1), bias=False)\n          (bn): BatchNorm2d(128, eps=0.001, momentum=0.03,\
    \ affine=True, track_running_stats=True)\n          (act): SiLU(inplace=True)\n\
    \        )\n      )\n      (1): Sequential(\n        (0): BaseConv(\n        \
    \  (conv): Conv2d(128, 128, kernel_size=(3, 3), stride=(1, 1), padding=(1, 1),\
    \ bias=False)\n          (bn): BatchNorm2d(128, eps=0.001, momentum=0.03, affine=True,\
    \ track_running_stats=True)\n          (act): SiLU(inplace=True)\n        )\n\
    \        (1): BaseConv(\n          (conv): Conv2d(128, 128, kernel_size=(3, 3),\
    \ stride=(1, 1), padding=(1, 1), bias=False)\n          (bn): BatchNorm2d(128,\
    \ eps=0.001, momentum=0.03, affine=True, track_running_stats=True)\n         \
    \ (act): SiLU(inplace=True)\n        )\n      )\n      (2): Sequential(\n    \
    \    (0): BaseConv(\n          (conv): Conv2d(128, 128, kernel_size=(3, 3), stride=(1,\
    \ 1), padding=(1, 1), bias=False)\n          (bn): BatchNorm2d(128, eps=0.001,\
    \ momentum=0.03, affine=True, track_running_stats=True)\n          (act): SiLU(inplace=True)\n\
    \        )\n        (1): BaseConv(\n          (conv): Conv2d(128, 128, kernel_size=(3,\
    \ 3), stride=(1, 1), padding=(1, 1), bias=False)\n          (bn): BatchNorm2d(128,\
    \ eps=0.001, momentum=0.03, affine=True, track_running_stats=True)\n         \
    \ (act): SiLU(inplace=True)\n        )\n      )\n    )\n    (cls_preds): ModuleList(\n\
    \      (0): Conv2d(128, 1, kernel_size=(1, 1), stride=(1, 1))\n      (1): Conv2d(128,\
    \ 1, kernel_size=(1, 1), stride=(1, 1))\n      (2): Conv2d(128, 1, kernel_size=(1,\
    \ 1), stride=(1, 1))\n    )\n    (reg_preds): ModuleList(\n      (0): Conv2d(128,\
    \ 4, kernel_size=(1, 1), stride=(1, 1))\n      (1): Conv2d(128, 4, kernel_size=(1,\
    \ 1), stride=(1, 1))\n      (2): Conv2d(128, 4, kernel_size=(1, 1), stride=(1,\
    \ 1))\n    )\n    (obj_preds): ModuleList(\n      (0): Conv2d(128, 1, kernel_size=(1,\
    \ 1), stride=(1, 1))\n      (1): Conv2d(128, 1, kernel_size=(1, 1), stride=(1,\
    \ 1))\n      (2): Conv2d(128, 1, kernel_size=(1, 1), stride=(1, 1))\n    )\n \
    \   (stems): ModuleList(\n      (0): BaseConv(\n        (conv): Conv2d(128, 128,\
    \ kernel_size=(1, 1), stride=(1, 1), bias=False)\n        (bn): BatchNorm2d(128,\
    \ eps=0.001, momentum=0.03, affine=True, track_running_stats=True)\n        (act):\
    \ SiLU(inplace=True)\n      )\n      (1): BaseConv(\n        (conv): Conv2d(256,\
    \ 128, kernel_size=(1, 1), stride=(1, 1), bias=False)\n        (bn): BatchNorm2d(128,\
    \ eps=0.001, momentum=0.03, affine=True, track_running_stats=True)\n        (act):\
    \ SiLU(inplace=True)\n      )\n      (2): BaseConv(\n        (conv): Conv2d(512,\
    \ 128, kernel_size=(1, 1), stride=(1, 1), bias=False)\n        (bn): BatchNorm2d(128,\
    \ eps=0.001, momentum=0.03, affine=True, track_running_stats=True)\n        (act):\
    \ SiLU(inplace=True)\n      )\n    )\n    (mlp): ModuleList(\n      (0): BaseConv(\n\
    \        (conv): Conv2d(256, 128, kernel_size=(1, 1), stride=(1, 1), bias=False)\n\
    \        (bn): BatchNorm2d(128, eps=0.001, momentum=0.03, affine=True, track_running_stats=True)\n\
    \        (act): SiLU(inplace=True)\n      )\n      (1): BaseConv(\n        (conv):\
    \ Conv2d(512, 256, kernel_size=(1, 1), stride=(1, 1), bias=False)\n        (bn):\
    \ BatchNorm2d(256, eps=0.001, momentum=0.03, affine=True, track_running_stats=True)\n\
    \        (act): SiLU(inplace=True)\n      )\n      (2): BaseConv(\n        (conv):\
    \ Conv2d(1024, 512, kernel_size=(1, 1), stride=(1, 1), bias=False)\n        (bn):\
    \ BatchNorm2d(512, eps=0.001, momentum=0.03, affine=True, track_running_stats=True)\n\
    \        (act): SiLU(inplace=True)\n      )\n    )\n    (Reasoning_layer): ModuleList(\n\
    \      (0): SwinTransformer(\n        (patch_embed): PatchEmbed(\n          (proj):\
    \ Conv2d(128, 128, kernel_size=(1, 1), stride=(1, 1))\n          (norm): LayerNorm((128,),\
    \ eps=1e-05, elementwise_affine=True)\n        )\n        (pos_drop): Dropout(p=0.0,\
    \ inplace=False)\n        (layers): ModuleList(\n          (0): BasicLayer(\n\
    \            (blocks): ModuleList(\n              (0): SwinTransformerBlock(\n\
    \                (norm1): LayerNorm((128,), eps=1e-05, elementwise_affine=True)\n\
    \                (attn): WindowAttention(\n                  (qkv): Linear(in_features=128,\
    \ out_features=384, bias=True)\n                  (attn_drop): Dropout(p=0.0,\
    \ inplace=False)\n                  (proj): Linear(in_features=128, out_features=128,\
    \ bias=True)\n                  (proj_drop): Dropout(p=0.0, inplace=False)\n \
    \                 (softmax): Softmax(dim=-1)\n                )\n            \
    \    (drop_path): Identity()\n                (norm2): LayerNorm((128,), eps=1e-05,\
    \ elementwise_affine=True)\n                (mlp): Mlp(\n                  (fc1):\
    \ Linear(in_features=128, out_features=512, bias=True)\n                  (act):\
    \ GELU()\n                  (fc2): Linear(in_features=512, out_features=128, bias=True)\n\
    \                  (drop): Dropout(p=0.0, inplace=False)\n                )\n\
    \              )\n            )\n          )\n        )\n        (norm0): LayerNorm((128,),\
    \ eps=1e-05, elementwise_affine=True)\n      )\n      (1): SwinTransformer(\n\
    \        (patch_embed): PatchEmbed(\n          (proj): Conv2d(256, 256, kernel_size=(1,\
    \ 1), stride=(1, 1))\n          (norm): LayerNorm((256,), eps=1e-05, elementwise_affine=True)\n\
    \        )\n        (pos_drop): Dropout(p=0.0, inplace=False)\n        (layers):\
    \ ModuleList(\n          (0): BasicLayer(\n            (blocks): ModuleList(\n\
    \              (0): SwinTransformerBlock(\n                (norm1): LayerNorm((256,),\
    \ eps=1e-05, elementwise_affine=True)\n                (attn): WindowAttention(\n\
    \                  (qkv): Linear(in_features=256, out_features=768, bias=True)\n\
    \                  (attn_drop): Dropout(p=0.0, inplace=False)\n              \
    \    (proj): Linear(in_features=256, out_features=256, bias=True)\n          \
    \        (proj_drop): Dropout(p=0.0, inplace=False)\n                  (softmax):\
    \ Softmax(dim=-1)\n                )\n                (drop_path): Identity()\n\
    \                (norm2): LayerNorm((256,), eps=1e-05, elementwise_affine=True)\n\
    \                (mlp): Mlp(\n                  (fc1): Linear(in_features=256,\
    \ out_features=1024, bias=True)\n                  (act): GELU()\n           \
    \       (fc2): Linear(in_features=1024, out_features=256, bias=True)\n       \
    \           (drop): Dropout(p=0.0, inplace=False)\n                )\n       \
    \       )\n            )\n          )\n        )\n        (norm0): LayerNorm((256,),\
    \ eps=1e-05, elementwise_affine=True)\n      )\n      (2): SwinTransformer(\n\
    \        (patch_embed): PatchEmbed(\n          (proj): Conv2d(512, 512, kernel_size=(1,\
    \ 1), stride=(1, 1))\n          (norm): LayerNorm((512,), eps=1e-05, elementwise_affine=True)\n\
    \        )\n        (pos_drop): Dropout(p=0.0, inplace=False)\n        (layers):\
    \ ModuleList(\n          (0): BasicLayer(\n            (blocks): ModuleList(\n\
    \              (0): SwinTransformerBlock(\n                (norm1): LayerNorm((512,),\
    \ eps=1e-05, elementwise_affine=True)\n                (attn): WindowAttention(\n\
    \                  (qkv): Linear(in_features=512, out_features=1536, bias=True)\n\
    \                  (attn_drop): Dropout(p=0.0, inplace=False)\n              \
    \    (proj): Linear(in_features=512, out_features=512, bias=True)\n          \
    \        (proj_drop): Dropout(p=0.0, inplace=False)\n                  (softmax):\
    \ Softmax(dim=-1)\n                )\n                (drop_path): Identity()\n\
    \                (norm2): LayerNorm((512,), eps=1e-05, elementwise_affine=True)\n\
    \                (mlp): Mlp(\n                  (fc1): Linear(in_features=512,\
    \ out_features=2048, bias=True)\n                  (act): GELU()\n           \
    \       (fc2): Linear(in_features=2048, out_features=512, bias=True)\n       \
    \           (drop): Dropout(p=0.0, inplace=False)\n                )\n       \
    \       )\n            )\n          )\n        )\n        (norm0): LayerNorm((512,),\
    \ eps=1e-05, elementwise_affine=True)\n      )\n    )\n    (l1_loss): L1Loss()\n\
    \    (bcewithlog_loss): BCEWithLogitsLoss()\n    (iou_loss): IOUloss()\n  )\n)"
momentum:
  desc: null
  value: 0.9
mosaic_prob:
  desc: null
  value: 1.0
mosaic_scale:
  desc: null
  value:
  - 0.1
  - 2
multiscale_range:
  desc: null
  value: 5
nmsthre:
  desc: null
  value: 0.65
no_aug_epochs:
  desc: null
…
